example-shockwave/traced_energynn_model.pt (torch, 10607 bytes, 3 tensors)

weight f4 [50, 2]
000000 61 40 0b 3f bc 4c aa 3c 43 85 cc be fb 7b 9d bd
       0.5439511 0.020788543 -0.3994542 -0.07689663
000010 ec 7e 58 bf 3a f1 e2 be 11 01 97 bf e4 24 d0 3e
       -0.8456867 -0.44324666 -1.17972 0.40653145
000020 c7 aa f9 be f8 71 32 be cc 27 00 3f d4 2d 07 3e
       -0.48763105 -0.17426288 0.50060725 0.13201076
000030 b3 bd ac 3f e3 34 1b bf 84 0f bd 3f 6a f3 b1 bf
       1.3495392 -0.60627574 1.477036 -1.3902409
000040 14 31 91 bf f6 45 e6 40 32 0c 0c 3f b7 51 27 3e
       -1.1343102 7.19604 0.5470611 0.16339765
000050 67 17 a6 bf 78 0c 83 40 f4 91 28 3f a9 dd 43 bd
       -1.2975892 4.095272 0.65847707 -0.047818813
000060 e1 81 09 3f 88 4c 70 3c 24 44 0a bf f2 42 04 be
       0.53713804 0.014666684 -0.54010224 -0.12916163
000070 67 eb 04 3f d3 a5 30 3e cb a6 8c 3f 6a 16 19 c1
       0.51921695 0.17250757 1.0988401 -9.567972
000080 9c 53 85 3f bb 7b 77 c0 84 b9 b9 bf 04 d6 1a c0
       1.041614 -3.866927 -1.450974 -2.4193125
000090 27 cb 77 bf 22 72 0b 41 fb de 14 3f 83 2b e4 3d
       -0.9679436 8.715364 0.5815274 0.11141112
0000a0 1c 97 91 be 83 37 d8 bd 0a 00 cd 3f bf 78 d7 40
       -0.284356 -0.10557463 1.6015637 6.7334895
0000b0 82 73 b9 bf d4 34 0e c0 e8 3f 8a bf bd f4 6e 40
       -1.4488375 -2.2219744 -1.0800753 3.7336876
0000c0 88 96 9a 3e 56 22 04 3e 5e dc c4 3f e5 ec 35 40
       0.3019297 0.12903723 1.5379751 2.842584
0000d0 0f e9 65 bf 03 64 05 3e 7c aa 97 bf 83 75 d6 40
       -0.89808744 0.13026433 -1.1848903 6.7018447
0000e0 ab f7 29 bf 1b 49 a0 bd 09 ad 0d 3f 5d 50 89 bd
       -0.66393536 -0.07826444 0.55342156 -0.06704781
0000f0 95 d7 78 3f e9 b2 30 3f 18 da 9f 3f bd c1 54 40
       0.9720395 0.69022995 1.2488432 3.3243248
000100 99 be 91 bf 9b 97 45 41 85 32 c7 3f d9 4b ac 40
       -1.1386291 12.349513 1.5562292 5.3842587
000110 ff 08 49 3f b2 55 63 bd fd 7f 90 bf 9e 45 cc 40
       0.7852935 -0.055501647 -1.1289059 6.383498
000120 3a 27 fb 3e e6 3f 0a 3e 8b 5c bf 3f 3a 13 f7 3f
       0.49053365 0.13500938 1.4950117 1.9302742
000130 e1 56 43 3f 2a 16 6a c0 1c 86 99 3f 16 c9 1f c1
       0.7630444 -3.6576028 1.1994052 -9.986593
000140 0c 44 bc be f8 a4 27 be a9 24 f6 bf ff b5 24 c1
       -0.36770666 -0.16371524 -1.9229938 -10.294433
000150 0f 2b 1a bf 02 fd d7 bd 57 e8 0c bf 99 36 e4 3c
       -0.6022195 -0.10546304 -0.5504202 0.027858065
000160 81 9c c7 be 88 2d 7c bd d5 b6 18 3f d0 1c f3 3a
       -0.3898659 -0.06156686 0.5965398 0.0018548016
000170 4e 34 a6 bf ea 3b 1a c0 26 1a c6 3f d0 4a ca 40
       -1.2984712 -2.4099069 1.547673 6.3216324
000180 b6 e7 3d 3f 09 21 54 3e 59 90 d0 3e c7 be 82 3d
       0.7418169 0.20715727 0.4073513 0.06384044

bias f4 [50]
000000 ac 4c 6b 3f 4e fe 8a bf 61 03 87 bf 19 b4 ec 3e
       0.91913867 -1.0858858 -1.0547906 0.46231154
000010 9d c3 91 bf 0d 8c 78 3f 7a 3e 18 bf 70 2c 5c bf
       -1.1387821 0.970887 -0.5947033 -0.86005306
000020 36 17 a2 3f c4 df 5d 3f da a2 11 3f 7b 6f fc 3e
       1.2663333 0.86669564 0.56889117 0.49303803
000030 81 b9 11 3f 0d ec 8b bf 30 11 a4 3f b0 75 ab bf
       0.5692368 -1.0931412 1.2817745 -1.339529
000040 0d f3 b8 be 3f f9 2c bf 85 94 9b 3f c7 86 6e 3f
       -0.36122933 -0.6756782 1.21547 0.93174404
000050 c3 b1 ad bf 2b e3 53 3e 47 f1 3f bf 15 ce f7 3e
       -1.3569874 0.20692126 -0.74977535 0.48399416
000060 5a fb 95 3f ec a7 76 3e 16 41 f3 3d 8f 2f a0 3f
       1.1717331 0.24087495 0.118776485 1.2514514
000070 6b 75 23 bf 76 04 03 3f 95 0c bd 3f 0d c6 62 3f
       -0.6385104 0.5117868 1.4769465 0.8858345
000080 91 ce ab 3f 95 90 08 3e 69 86 23 3e 88 5f 95 3f
       1.3422414 0.13336404 0.15969242 1.1669779
000090 a9 5e 86 3f 60 29 58 3f ae a0 95 bd 67 db b6 bf
       1.0497638 0.84438133 -0.07306038 -1.4285706
0000a0 8e 02 b8 bf 78 59 d3 bd 68 30 42 bf 91 29 4e bf
       -1.437578 -0.10319799 -0.7585511 -0.80532175
0000b0 46 22 9b bf 9a 94 25 3f 33 51 8c bf f6 db 6a 3e
       -1.2119834 0.64679873 -1.096228 0.22935471
0000c0 ea 14 81 3f 0d 40 97 3f
       1.0084507 1.1816422

weight f4 [1, 50]
000000 ce bc 3f 3f b0 79 1b bf 18 de 55 bf 59 77 ab bf
       0.7489747 -0.60732555 -0.83542013 -1.3395797
000010 39 84 3a bf b4 c4 8a 3f 79 83 83 3f 82 54 ac 3f
       -0.72858006 1.0841279 1.0274497 1.346329
000020 1c 7e 27 c0 32 8e 63 3f f6 50 95 bf 80 4f 79 3f
       -2.617072 0.8888885 -1.1665332 0.9738693
000030 5f e3 41 3f 3f e9 0a bf cf 1a 3c 3f c8 41 21 40
       0.75737566 -0.54262155 0.73478407 2.51964
000040 07 58 73 3f d2 3b 38 bf b2 f1 f6 bf d0 aa 9c 3f
       0.95056194 -0.7196628 -1.929251 1.2239628
000050 a5 f1 9e bf f2 8d 60 3f 3e a7 62 bf 44 b0 5d bf
       -1.2417494 0.8771659 -0.8853644 -0.86597085
000060 7a 98 58 3f 52 06 90 3f 78 57 5d bf 28 f8 0a c0
       0.8460766 1.1251929 -0.8646159 -2.1713963
000070 ad ba 81 bf 7e e3 c0 3e b7 bc 24 3f 94 e0 1b 3f
       -1.0135094 0.37673563 0.64350456 0.60889554
000080 db 24 46 c0 05 67 64 3f 94 2b 59 3f f0 4c c5 bf
       -3.0959995 0.89219695 0.8483212 -1.5414104
000090 61 f8 5b 3f 3e 70 3f 3f 96 ce a8 3f b5 07 28 40
       0.8592587 0.74780643 1.3188045 2.6254704
0000a0 56 ad 28 bf 2e 55 86 bf a5 57 96 bf b8 e7 07 bf
       -0.6588949 -1.0494745 -1.1745497 -0.5308795
0000b0 3e 84 64 bf 46 94 fc 3e 7a 37 2b bf e3 aa 84 3f
       -0.89264286 0.49331874 -0.66881526 1.036465
0000c0 90 71 49 3f df 6d 5a 3f
       0.7868891 0.853239
